…
    train_data = scaler.fit_transform(train_data.reshape(-1, train_data.shape[-1])).reshape(train_data.shape)
    test_data = scaler.transform(test_data.reshape(-1, test_data.shape[-1])).reshape(test_data.shape)
</code></pre>
<p>but this didn't result in any improvement. The model I'm using is based on an encoder-only transformer:</p>
<pre><code>Layer (type)                 Output Shape              Param #   
=================================================================
input_1 (InputLayer)         [(None, 100, 20, 4096)]   0         
_________________________________________________________________
frame_position_embedding (Po (None, 100, 20, 4096)     8192000   
_________________________________________________________________
transformer_layer (Encoder)  (None, 100, 20, 4096)     134299652 
_________________________________________________________________
global_max_pooling (GlobalMa (None, 4096)              0         
_________________________________________________________________
dropout (Dropout)            (None, 4096)              0         
_________________________________________________________________
output (Dense)               (None, 1)                 4097      
=================================================================
Total params: 142,495,749
Trainable params: 142,495,749
Non-trainable params: 0
_________________________________________________________________
</code></pre>
<p>During training, I can see that loss, accuracy, precision and recall reach decent levels, but when I evaluate the model on the test set all these values are as I previously described:</p>
…
 (I used <code>summary(self.model, input_size=torch.Size([1, 256, 192])</code> from torchinfo)
<a href=""https://github.com/sony/hFT-Transformer/blob/master/model/model_spec2midi.py"" rel=""nofollow noreferrer"">model code</a></p>
<pre><code>=========================================================================================================
Layer (type:depth-idx)                                  Output Shape              Param #
=========================================================================================================
Model_SPEC2MIDI                                         [1, 128, 88]              --
├─Encoder_SPEC2MIDI: 1-1                                [1, 128, 256, 256]        --
│    └─Conv2d: 2-1                                      [128, 4, 256, 61]         24
│    └─Linear: 2-2                                      [128, 256, 256]           62,720
│    └─Embedding: 2-3                                   [128, 256, 256]           65,536
│    └─Dropout: 2-4                                     [128, 256, 256]           --
│    └─ModuleList: 2-5                                  --                        --
│    │    └─EncoderLayer: 3-1                           [128, 256, 256]           526,592
│    │    └─EncoderLayer: 3-2                           [128, 256, 256]           526,592
│    │    └─EncoderLayer: 3-3                           [128, 256, 256]           526,592
├─Decoder_SPEC2MIDI: 1-2                                [1, 128, 88]              --
│    └─Embedding: 2-6                                   [128, 88, 256]            22,528
│    └─DecoderLayer_Zero: 2-7                           [128, 88, 256]            --
│    │    └─MultiHeadAttentionLayer: 3-4                [128, 88, 256]            263,168
│    │    └─Dropout: 3-5                                [128, 88, 256]            --
│    │    └─LayerNorm: 3-6                              [128, 88, 256]            512
│    │    └─PositionwiseFeedforwardLayer: 3-7           [128, 88, 256]            262,912
│    │    └─Dropout: 3-8                                [128, 88, 256]            --
│    │    └─LayerNorm: 3-9                              [128, 88, 256]            (recursive)
│    └─ModuleList: 2-8                                  --                        --
│    │    └─DecoderLayer: 3-10                          [128, 88, 256]            789,760
│    │    └─DecoderLayer: 3-11                          [128, 88, 256]            789,760
│    └─Linear: 2-9                                      [128, 88, 1]              257
│    └─Sigmoid: 2-10                                    [1, 128, 88]              --
│    └─Linear: 2-11                                     [128, 88, 1]              257
│    └─Sigmoid: 2-12                                    [1, 128, 88]              --
│    └─Linear: 2-13                                     [128, 88, 1]              257
│    └─Sigmoid: 2-14                                    [1, 128, 88]              --
│    └─Linear: 2-15                                     [128, 88, 128]            32,896
│    └─Embedding: 2-16                                  [88, 128, 256]            32,768
│    └─Dropout: 2-17                                    [88, 128, 256]            --
│    └─ModuleList: 2-18                                 --                        --
│    │    └─EncoderLayer: 3-12                          [88, 128, 256]            526,592
│    │    └─EncoderLayer: 3-13                          [88, 128, 256]            526,592
│    │    └─EncoderLayer: 3-14                          [88, 128, 256]            526,592
│    └─Linear: 2-19                                     [88, 128, 1]              257
│    └─Sigmoid: 2-20                                    [1, 128, 88]              --
│    └─Linear: 2-21                                     [88, 128, 1]              257
│    └─Sigmoid: 2-22                                    [1, 128, 88]              --
│    └─Linear: 2-23                                     [88, 128, 1]              257
│    └─Sigmoid: 2-24                                    [1, 128, 88]              --
│    └─Linear: 2-25                                     [88, 128, 128]            32,896
=========================================================================================================
Total params: 5,516,574
Trainable params: 5,516,574
Non-trainable params: 0
Total mult-adds (M): 688.90
=========================================================================================================
Input size (MB): 0.20
Forward/backward pass size (MB): 3820.50
Params size (MB): 22.07
…
  x = layers.Dropout(0.2, name='dropout2_modelFinal')(x)
  outputs = layers.Dense(1,activation='sigmoid', name='final_layer')(x)

  model = keras.Model(inputs=[Input_1, Input_2], outputs=outputs)
  return model

model_final = model3(model_audio,model_text)
print(model_final.summary())
</code></pre>
<p>Here is the model3 (model final) summary</p>
<h1>Layer (type)                Output Shape                 Param #   Connected to</h1>
<p>Input_1 (InputLayer)        [(None, 135, 40)]            0         []</p>
<p>Input_2 (InputLayer)        [(None, 17)]                 0         []</p>
<p>model (Functional)          (None, 65, 128)              553344    ['Input_1[0][0]']</p>
<p>model_1 (Functional)        (None, 17, 128)              287616    ['Input_2[0][0]']</p>
<p>attention_layer (MultiHead  ((None, 65, 128),            1158      ['model[0][0]',<br />
Attention)                   (None, 2, 65, 17))                     'model_1[0][0]']</p>
<p>GRU (GRU)                   (None, 128)                  99072     ['attention_layer[0][0]']</p>
<p>dropout1_modelFinal (Dropo  (None, 128)                  0         ['GRU[0][0]']<br />
ut)</p>
<p>dense (Dense)               (None, 32)                   4128      ['dropout1_modelFinal[0][0]']</p>
<p>dropout2_modelFinal (Dropo  (None, 32)                   0         ['dense[0][0]']<br />
ut)</p>
<p>final_layer (Dense)         (None, 1)                    33        ['dropout2_modelFinal[0][0]']</p>
<p>==================================================================================================
Total params: 945351 (3.61 MB)
Trainable params: 945159 (3.61 MB)
Non-trainable params: 192 (768.00 Byte)</p>
<p>Here I want to extract the <strong>model (Functional)</strong> output which is an another model (mode_audio) defined. It is a submodel fused in main model. actually model_audio output is used an input to model_final</p>
…
<p>I tried to change the dataset into a TensorFlow dataset instead of a Pandas one, but it did not detect the shape of the input at all when I did that.</p>
<p>Here is my model summary</p>
<pre><code>Model: &quot;model&quot;
__________________________________________________________________________________________________
 Layer (type)                   Output Shape         Param #     Connected to                     
==================================================================================================
 input_1 (InputLayer)           [(None, 41671, 43)]  0           []                               
                                                                                                  
 layer_normalization (LayerNorm  (None, 41671, 43)   86          ['input_1[0][0]']                
 alization)                                                                                       
                                                                                                  
 multi_head_attention (MultiHea  (None, 41671, 43)   179243      ['layer_normalization[0][0]',    
 dAttention)                                                      'layer_normalization[0][0]']    
                                                                                                  
 dropout (Dropout)              (None, 41671, 43)    0           ['multi_head_attention[0][0]']   
                                                                                                  
 tf.__operators__.add (TFOpLamb  (None, 41671, 43)   0           ['dropout[0][0]',                
 da)                                                              'input_1[0][0]']                
                                                                                                  
 layer_normalization_1 (LayerNo  (None, 41671, 43)   86          ['tf.__operators__.add[0][0]']   
 rmalization)                                                                                     
                                                                                                  
 conv1d (Conv1D)                (None, 41671, 4)     176         ['layer_normalization_1[0][0]']  
                                                                                                  
 dropout_1 (Dropout)            (None, 41671, 4)     0           ['conv1d[0][0]']                 
                                                                                                  
 conv1d_1 (Conv1D)              (None, 41671, 43)    215         ['dropout_1[0][0]']              
                                                                                                  
 tf.__operators__.add_1 (TFOpLa  (None, 41671, 43)   0           ['conv1d_1[0][0]',               
 mbda)                                                            'tf.__operators__.add[0][0]']   
                                                                                                  
 layer_normalization_2 (LayerNo  (None, 41671, 43)   86          ['tf.__operators__.add_1[0][0]'] 
 rmalization)                                                                                     
                                                                                                  
 multi_head_attention_1 (MultiH  (None, 41671, 43)   179243      ['layer_normalization_2[0][0]',  
 eadAttention)                                                    'layer_normalization_2[0][0]']  
                                                                                                  
 dropout_2 (Dropout)            (None, 41671, 43)    0           ['multi_head_attention_1[0][0]'] 
                                                                                                  
 tf.__operators__.add_2 (TFOpLa  (None, 41671, 43)   0           ['dropout_2[0][0]',              
 mbda)                                                            'tf.__operators__.add_1[0][0]'] 
                                                                                                  
 layer_normalization_3 (LayerNo  (None, 41671, 43)   86          ['tf.__operators__.add_2[0][0]'] 
 rmalization)                                                                                     
                                                                                                  
 conv1d_2 (Conv1D)              (None, 41671, 4)     176         ['layer_normalization_3[0][0]']  
                                                                                                  
 dropout_3 (Dropout)            (None, 41671, 4)     0           ['conv1d_2[0][0]']               
                                                                                                  
 conv1d_3 (Conv1D)              (None, 41671, 43)    215         ['dropout_3[0][0]']              
                                                                                                  
 tf.__operators__.add_3 (TFOpLa  (None, 41671, 43)   0           ['conv1d_3[0][0]',               
 mbda)                                                            'tf.__operators__.add_2[0][0]'] 
                                                                                                  
 layer_normalization_4 (LayerNo  (None, 41671, 43)   86          ['tf.__operators__.add_3[0][0]'] 
 rmalization)                                                                                     
                                                                                                  
 multi_head_attention_2 (MultiH  (None, 41671, 43)   179243      ['layer_normalization_4[0][0]',  
 eadAttention)                                                    'layer_normalization_4[0][0]']  
                                                                                                  
 dropout_4 (Dropout)            (None, 41671, 43)    0           ['multi_head_attention_2[0][0]'] 
                                                                                                  
 tf.__operators__.add_4 (TFOpLa  (None, 41671, 43)   0           ['dropout_4[0][0]',              
 mbda)                                                            'tf.__operators__.add_3[0][0]'] 
                                                                                                  
 layer_normalization_5 (LayerNo  (None, 41671, 43)   86          ['tf.__operators__.add_4[0][0]'] 
 rmalization)                                                                                     
                                                                                                  
 conv1d_4 (Conv1D)              (None, 41671, 4)     176         ['layer_normalization_5[0][0]']  
                                                                                                  
 dropout_5 (Dropout)            (None, 41671, 4)     0           ['conv1d_4[0][0]']               
                                                                                                  
 conv1d_5 (Conv1D)              (None, 41671, 43)    215         ['dropout_5[0][0]']              
                                                                                                  
 tf.__operators__.add_5 (TFOpLa  (None, 41671, 43)   0           ['conv1d_5[0][0]',               
 mbda)                                                            'tf.__operators__.add_4[0][0]'] 
                                                                                                  
 layer_normalization_6 (LayerNo  (None, 41671, 43)   86          ['tf.__operators__.add_5[0][0]'] 
 rmalization)                                                                                     
                                                                                                  
 multi_head_attention_3 (MultiH  (None, 41671, 43)   179243      ['layer_normalization_6[0][0]',  
 eadAttention)                                                    'layer_normalization_6[0][0]']  
                                                                                                  
 dropout_6 (Dropout)            (None, 41671, 43)    0           ['multi_head_attention_3[0][0]'] 
                                                                                                  
 tf.__operators__.add_6 (TFOpLa  (None, 41671, 43)   0           ['dropout_6[0][0]',              
 mbda)                                                            'tf.__operators__.add_5[0][0]'] 
                                                                                                  
 layer_normalization_7 (LayerNo  (None, 41671, 43)   86          ['tf.__operators__.add_6[0][0]'] 
 rmalization)                                                                                     
                                                                                                  
 conv1d_6 (Conv1D)              (None, 41671, 4)     176         ['layer_normalization_7[0][0]']  
                                                                                                  
 dropout_7 (Dropout)            (None, 41671, 4)     0           ['conv1d_6[0][0]']               
                                                                                                  
 conv1d_7 (Conv1D)              (None, 41671, 43)    215         ['dropout_7[0][0]']              
                                                                                                  
 tf.__operators__.add_7 (TFOpLa  (None, 41671, 43)   0           ['conv1d_7[0][0]',               
 mbda)                                                            'tf.__operators__.add_6[0][0]'] 
                                                                                                  
 global_average_pooling1d (Glob  (None, 41671)       0           ['tf.__operators__.add_7[0][0]'] 
 alAveragePooling1D)                                                                              
                                                                                                  
 dense (Dense)                  (None, 128)          5334016     ['global_average_pooling1d[0][0]'
                                                                 ]                                
                                                                                                  
 dropout_8 (Dropout)            (None, 128)          0           ['dense[0][0]']                  
                                                                                                  
 dense_1 (Dense)                (None, 1)            129         ['dropout_8[0][0]']              
                                                                                                  
==================================================================================================
Total params: 6,053,369
Trainable params: 6,053,369
Non-trainable params: 0
</code></pre>
<p>My training data shape is (41671, 43) and my label shape is (41671, 1).</p>
…
        tf.keras.layers.BatchNormalization(),
        tf.keras.layers.Dense(11, activation = tfa.activations.gelu),
        tf.keras.layers.BatchNormalization(),
        tf.keras.layers.Dense(3, 'softmax')
    ],
    name = 'vision_transformer')

model.summary()
</code></pre>
<p>Below is the output of the above cell:</p>
<pre><code>&gt; Model: &quot;vision_transformer&quot;
&gt; _________________________________________________________________ Layer (type)                 Output Shape              Param #   
&gt; ================================================================= vit-b32 (Functional)         (None, 768)               87455232  
&gt; _________________________________________________________________ flatten_1 (Flatten)          (None, 768)               0         
&gt; _________________________________________________________________ batch_normalization_2 (Batch (None, 768)               3072      
&gt; _________________________________________________________________ dense_2 (Dense)              (None, 11)                8459      
&gt; _________________________________________________________________ batch_normalization_3 (Batch (None, 11)                44        
&gt; _________________________________________________________________ dense_3 (Dense)              (None, 3)                 36        
&gt; ================================================================= Total params: 87,466,843 Trainable params: 87,465,285 Non-trainable
&gt; params: 1,558
&gt; _________________________________________________________________
</code></pre>
<p>Now I have trained the model on my own medical dataset:</p>
<pre><code>learning_rate = 1e-4

optimizer = tfa.optimizers.RectifiedAdam(learning_rate = learning_rate)
…
    x = layers.GlobalAveragePooling1D()(x)
    x = layers.Dropout(dropout)(x)
    x = layers.Dense(32, activation=&quot;relu&quot;)(x)
    x = layers.Dropout(dropout)(x)
    outputs = layers.Dense(2, activation=&quot;softmax&quot;)(x)
    model = keras.Model(inputs=inputs, outputs=outputs)
    return model

 Layer (type)                Output Shape              Param #   
=================================================================
 input_1 (InputLayer)        [(None, 75, 768)]         0         
                                                                 
 position_embedding (Positio  (None, 75, 768)          0         
 nEmbedding)                                                     
                                                                 
 transformer_block_1 (Transf  (None, 75, 768)          31491584  
 ormerBlock)                                                     
                                                                 
 global_average_pooling1d (G  (None, 768)              0         
 lobalAveragePooling1D)                                          
                                                                 
 dropout_41 (Dropout)        (None, 768)               0         
                                                                 
 dense_4 (Dense)             (None, 32)                24608     
                                                                 
 dropout_42 (Dropout)        (None, 32)                0         
                                                                 
 dense_5 (Dense)             (None, 2)                 66        
                                                                 
=================================================================
Total params: 31,516,258
Trainable params: 31,516,258
Non-trainable params: 0
</code></pre>
<p><strong>Pythorch</strong></p>
<pre><code>class TransformerBlock(nn.Module):
    def __init__(self, embed_dim, num_heads, ff_dim, max_len, rate=0.1):
        super(TransformerBlock, self).__init__()
…
preds = layers.Dense(class_number , activation='softmax', name='sentence_output')(sentence_out)

model = keras.Model(sentence_input, preds)
model.summary()
</code></pre>
<p>The summary of the model is as follows:</p>
<pre><code>Model: &quot;model_1&quot;
_________________________________________________________________
 Layer (type)                Output Shape              Param #   
=================================================================
 word_input (InputLayer)     [(None, 60)]              0         
                                                                 
 word_embedding (TokenAndPos  (None, 60, 100)          106000    
 itionEmbedding)                                                 
                                                                 
 word_transformer (Transform  (None, 60, 100)          53764     
 erBlock)                                                        
                                                                 
 word_pooling (GlobalAverage  (None, 100)              0         
 Pooling1D)                                                      
                                                                 
 word_drop (Dropout)         (None, 100)               0         
                                                                 
 word_dense (Dense)          (None, 100)               10100     
                                                                 
=================================================================
Total params: 169,864
Trainable params: 169,864
Non-trainable params: 0
_________________________________________________________________
Model: &quot;model_2&quot;
_________________________________________________________________
 Layer (type)                Output Shape              Param #   
=================================================================
 sentence_input (InputLayer)  [(None, 15, 60)]         0         
                                                                 
 sentence_encoder (TimeDistr  (None, 15, 100)          169864    
 ibuted)                                                         
                                                                 
 sentence_transformer (Trans  (None, 15, 100)          53764     
 formerBlock)                                                    
                                                                 
 sentence_pooling (GlobalAve  (None, 100)              0         
 ragePooling1D)                                                  
                                                                 
 dropout_9 (Dropout)         (None, 100)               0         
                                                                 
 sentence_output (Dense)     (None, 5)                 505       
                                                                 
=================================================================
Total params: 224,133
Trainable params: 224,133
Non-trainable params: 0
</code></pre>
<p>Everything is ok and you can copy and paste these codes in colab to see the summary of the model.
But, my problem is for positional encoding at the sentence level.
How to apply positional encoding at the sentence level?</p>
…
