…
<p>I will briefly explain the logic of the author. One of four tokens is assigned for each word: Other (0), PERIOD (1), COMMA (2), QUESTION (3). Further, all words are converted to BERT tokens. Here is an example:</p>
<pre><code>  2045  0
  2003  0
  2200  0
  2210  0
  3983  0
  2301  0
  2974  0
  1999  0
  2068  2
</code></pre>
<p>Next, we do padding. We set a segment (e.g. eight words) and for each word we take two words before a token and four words after a token. Also, we add a padding token after each word. For the very first word, there are no words before. Therefore, a word are taken from the end. Similarly, for the last word, there are no words after and therefore a word are taken from the beginning.
Here is an example of it.</p>
<pre><code>[1999, 2068, 2045, 0, 2003, 2200, 2210, 3983] 0
[2068, 2045, 2003, 0, 2200, 2210, 3983, 2301] 0
[2045, 2003, 2200, 0, 2210, 3983, 2301, 2974] 0
[2003, 2200, 2210, 0, 3983, 2301, 2974, 1999] 0
[2200, 2210, 3983, 0, 2301, 2974, 1999, 2068] 0
[2210, 3983, 2301, 0, 2974, 1999, 2068, 2045] 0
[3983, 2301, 2974, 0, 1999, 2068, 2045, 2003] 0
[2301, 2974, 1999, 0, 2068, 2045, 2003, 2200] 0
[2974, 1999, 2068, 0, 2045, 2003, 2200, 2210] 2
</code></pre>
<p>The first column contains tokens, and the second column contains punctuation symbols. In first column, &quot;0&quot; corresponds to a padding. Next we do TensorDataset, and than DataLoader. In the second column, '0' corresponds to &quot;other&quot;, and '2' corresponds to a &quot;period&quot;. Finaly we train a model:</p>
<pre><code>for inputs, labels in data_loader_train:
       inputs, labels = inputs.cuda(), labels.cuda()
…

<p>I understand we need LSTM to capture the sequence of words in the sentience, but I am not quite understand what does Conv1d do in the model architecture? Could someone please share some intuitive explanation? </p>

<p>Thanks a lot!</p>

<pre><code>Model: ""model_1""
__________________________________________________________________________________________________
Layer (type)                    Output Shape         Param #     Connected to                     
==================================================================================================
input_1 (InputLayer)            (None, 100)          0                                            
__________________________________________________________________________________________________
embedding_1 (Embedding)         (None, 100, 100)     2000000     input_1[0][0]                    
__________________________________________________________________________________________________
dropout_1 (Dropout)             (None, 100, 100)     0           embedding_1[0][0]                
__________________________________________________________________________________________________
conv1d_1 (Conv1D)               (None, 98, 200)      60200       dropout_1[0][0]                  
__________________________________________________________________________________________________
conv1d_2 (Conv1D)               (None, 96, 200)      120200      conv1d_1[0][0]                   
__________________________________________________________________________________________________
conv1d_3 (Conv1D)               (None, 94, 256)      153856      conv1d_2[0][0]                   
__________________________________________________________________________________________________
conv1d_4 (Conv1D)               (None, 92, 256)      196864      conv1d_3[0][0]                   
__________________________________________________________________________________________________
conv1d_5 (Conv1D)               (None, 45, 512)      393728      conv1d_4[0][0]                   
__________________________________________________________________________________________________
cu_dnnlstm_1 (CuDNNLSTM)        (None, 512)          2101248     conv1d_5[0][0]                   
__________________________________________________________________________________________________
cu_dnnlstm_2 (CuDNNLSTM)        (None, 512)          2101248     conv1d_5[0][0]                   
__________________________________________________________________________________________________
concatenate_1 (Concatenate)     (None, 1024)         0           cu_dnnlstm_1[0][0]               
                                                                 cu_dnnlstm_2[0][0]               
__________________________________________________________________________________________________
dropout_2 (Dropout)             (None, 1024)         0           concatenate_1[0][0]              
__________________________________________________________________________________________________
dense_1 (Dense)                 (None, 64)           65600       dropout_2[0][0]                  
__________________________________________________________________________________________________
dropout_3 (Dropout)             (None, 64)           0           dense_1[0][0]                    
__________________________________________________________________________________________________
dense_2 (Dense)                 (None, 1)            65          dropout_3[0][0]                  
==================================================================================================
Total params: 7,193,009
Trainable params: 7,193,009
Non-trainable params: 0
</code></pre>
","nlp"
"61692","What does dimension represent in GloVe pre-trained word vectors?","2019-10-14 06:24:06","","6","6498","<word-embeddings><nlp>","<p>I'm using <a href=""https://nlp.stanford.edu/projects/glove/"" rel=""nofollow noreferrer""><em>GloVe</em> pre-trained word vectors</a> (<code>glove.6b.50d.txt</code>, <code>glove.6b.300d.txt</code>) as word embedding.</p>
…
<p>I would like to know how to tune the hyperparameters so that I can get making accuracy by using above-mentioned formula. Should I use cosine distance to find the most similar documents or shall I use the gensim's most similar function?</p>
","nlp"
"56616","Getting Value Error while training a model for binary classification","2019-07-30 10:49:31","56617","0","134","<deep-learning><keras><nlp><spacy>","<p>While training a sequential model using Keras, Im getting this error</p>

<p>The model summary is shown below</p>

<pre><code>Layer (type)                 Output Shape              Param #   
=================================================================
dense_1 (Dense)              (None, 512)               20480512  
_________________________________________________________________
activation_1 (Activation)    (None, 512)               0         
_________________________________________________________________
dropout_1 (Dropout)          (None, 512)               0         
_________________________________________________________________
dense_2 (Dense)              (None, 512)               262656    
_________________________________________________________________
activation_2 (Activation)    (None, 512)               0         
_________________________________________________________________
dropout_2 (Dropout)          (None, 512)               0         
_________________________________________________________________
dense_3 (Dense)              (None, 2)                 1026      
_________________________________________________________________
activation_3 (Activation)    (None, 2)                 0         
=================================================================
</code></pre>

<p>I used the below steps to train the model, for binary classification,</p>

<pre><code>model = Sequential()

model.add(Dense(512, input_shape=(vocab_size,)))
model.add(Activation('relu'))
model.add(Dropout(0.3))

model.add(Dense(512))
model.add(Activation('relu'))

model.add(Dropout(0.3))
model.add(Dense(num_labels))
…
x = Conv1D(24, 4,activation='relu')(embedded_sequences)
x = LSTM(250,kernel_regularizer=regularizers.l1(0.01),activation='tanh')(x)
x = Dropout(0.4)(x)
</code></pre>

<p>Train &amp; Validation loss:</p>

<p><a href=""https://i.sstatic.net/ejuNQ.png"" rel=""nofollow noreferrer""><img src=""https://i.sstatic.net/ejuNQ.png"" alt=""enter image description here""></a></p>

<pre><code>_________________________________________________________________ 
Layer (type)                 Output Shape              Param #   
================================================================= 
input_7 (InputLayer)         (None, 25)                0         
_________________________________________________________________                     
embedding_7 (Embedding)      (None, 25, 300)           31500     
_________________________________________________________________     
conv1d_7 (Conv1D)            (None, 22, 64)            76864     
_________________________________________________________________ 
lstm_4 (LSTM)                (None, 250)               315000    
_________________________________________________________________ 
dropout_7 (Dropout)          (None, 250)               0         
_________________________________________________________________ 
dense_7 (Dense)              (None, 5)                 1255      
================================================================= 
Total params: 424,619 Trainable params: 424,619 Non-trainable params:0
_________________________________________________________________ 
Train on 123 samples, validate on 31 samples Epoch 1/35 123/123
&gt; [==============================] - 1s 8ms/step - loss: 22.8336 - acc:
&gt; 0.2439 - val_loss: 18.5322 - val_acc: 0.3871 Epoch 2/35 123/123 [==============================] - 1s 7ms/step - loss: 16.5612 - acc:
…
